…
    <span class="n">tf</span><span class="p">.</span><span class="n">keras</span><span class="p">.</span><span class="n">layers</span><span class="p">.</span><span class="n">Dense</span><span class="p">(</span><span class="mi">1</span><span class="p">,</span> <span class="n">activation</span><span class="o">=</span><span class="s">'sigmoid'</span><span class="p">)</span>  
<span class="p">])</span>

<span class="n">model</span><span class="p">.</span><span class="n">summary</span><span class="p">()</span>

<span class="c1"># Model: "sequential"
# _________________________________________________________________
# Layer (type)                 Output Shape              Param #   
# =================================================================
# conv2d (Conv2D)              (None, 148, 148, 16)      448       
# _________________________________________________________________
# max_pooling2d (MaxPooling2D) (None, 74, 74, 16)        0         
# _________________________________________________________________
# conv2d_1 (Conv2D)            (None, 72, 72, 32)        4640      
# _________________________________________________________________
# max_pooling2d_1 (MaxPooling2 (None, 36, 36, 32)        0         
# _________________________________________________________________
# conv2d_2 (Conv2D)            (None, 34, 34, 64)        18496     
# _________________________________________________________________
# max_pooling2d_2 (MaxPooling2 (None, 17, 17, 64)        0         
# _________________________________________________________________
# flatten (Flatten)            (None, 18496)             0         
# _________________________________________________________________
# dense (Dense)                (None, 512)               9470464   
# _________________________________________________________________
# dense_1 (Dense)              (None, 1)                 513       
# =================================================================
# Total params: 9,494,561
# Trainable params: 9,494,561
# Non-trainable params: 0
# _________________________________________________________________
</span></pre></td></tr></tbody></table></code></pre></div></div>

<div class="language-python highlighter-rouge"><div class="highlight"><pre class="highlight"><code><table class="rouge-table"><tbody><tr><td class="rouge-gutter gl"><pre class="lineno">1
…
